Code/model/model.pth (torch, 17673 bytes, 4 tensors)

linear_1.weight f4 [256, 11]
0	0x3d5ab7c5	0.053397913
1	0xbca9ccc5	-0.020727525
2	0x3f0ac4e8	0.54206705
3	0xbefe8a5a	-0.4971493
4	0x3ceaa93a	0.028645147
5	0xbc7c3dbe	-0.01539558
6	0x3e4606ee	0.19338581
7	0x3e632602	0.22182468
8	0xbe4ad262	-0.19806817
9	0x3dd77fe4	0.1052244
10	0x3ec1cabf	0.37849995
11	0x3d996cee	0.0749148
12	0x3c08aa65	0.0083414065
13	0xbdf18c24	-0.11794308
14	0x3e8794b9	0.26480654
15	0xbe91c4f6	-0.28470582
16	0x3ea9cec0	0.3316555
17	0xbe867c5b	-0.2626675
18	0xbf2ee0ee	-0.68311965
19	0xbeffc0e6	-0.49951857
20	0xbe4ae4da	-0.19813862
21	0x3e92d45d	0.28677645
22	0xbbf3f802	-0.0074453363
23	0x3f13d63f	0.5774879
24	0xbe663500	-0.22481155
25	0xbe549017	-0.20758091
26	0x3e8846d5	0.2661654
27	0xbead1de9	-0.33811882
28	0xbdaf5a62	-0.08562161
29	0xbd93611c	-0.071962565
30	0x3e1a6890	0.1507895
31	0xbe3d996e	-0.1851556
32	0xbe6cbf6c	-0.23119897
33	0x3de426fa	0.11140247
34	0xbe1813ca	-0.14851299
35	0x3e962e39	0.2933214
36	0xbd0f7515	-0.035023768
37	0xbeaa4753	-0.3325754
38	0xbde75f83	-0.11297514
39	0xbcfb0ea4	-0.03064663
40	0x3d598d0f	0.05311304
41	0x3dde8493	0.1086513
42	0xbcf35f82	-0.029708628
43	0xbe29a796	-0.16567835
44	0xbe4f2256	-0.20227942
45	0xbeef0f99	-0.46691588
46	0xbde9b8ab	-0.11412176
47	0xbde49514	-0.11161247
48	0x3eae30fd	0.3402175
49	0x3dab11e1	0.083530195
50	0x3e23df6b	0.16003196
51	0x3e13f0d1	0.14447333
52	0x3dd0afff	0.101898186
53	0xbf0b8b4a	-0.54509413
54	0x3dc6596f	0.09685027
55	0x3eaaf9b9	0.33393648
56	0x3e53371e	0.20626494
57	0xbe46e6d3	-0.1942399
58	0xbd498753	-0.04920132
59	0xbd388459	-0.04504809
60	0xbe745783	-0.23861508
61	0xbe132c31	-0.14372326
62	0x3e828f76	0.25500077
63	0x3e225d62	0.15855935
64	0x3e9b7d9d	0.30369273
65	0x3d9b9477	0.07596677
66	0xbe28246d	-0.16420145
67	0x3eaf2e70	0.34215117
68	0xbec2a250	-0.3801446
69	0x3ec279da	0.3798359
70	0xbe29ec06	-0.16593942
71	0xbea44074	-0.32080424
72	0x3d42f441	0.04759622
73	0x3e5d5754	0.21615344
74	0xbf05ebdf	-0.52313036
75	0xbec5cf7a	-0.38634855
76	0x3e95c78e	0.2925381
77	0x3d6f595b	0.058434825
78	0xbe97fce8	-0.2968514
79	0x3ead941f	0.3390207
80	0xbd954999	-0.07289428
81	0x3c64c40f	0.01396276
82	0x3d82e442	0.06391193
83	0xbeae24aa	-0.34012347
84	0xbcdbe6b2	-0.026843403
85	0xbc7b28ba	-0.015329534
86	0xbdb5cc4d	-0.08876858
87	0x3e7bae34	0.24578172
88	0x3f1e077b	0.61730164
89	0xbef05fbc	-0.4694804
90	0xbc29fd52	-0.010375338
91	0x3ecfbb62	0.4057265
92	0xbe9ed0cd	-0.31018677
93	0x3dc6c1c4	0.097049266
94	0xbbb55dd5	-0.0055348673
95	0xbea145a8	-0.31498456
96	0x3ea22f8e	0.31676906
97	0xbe0455eb	-0.129234
98	0xbe252f7d	-0.16131397
99	0x3eba32ac	0.36366785
100	0xbdb347fe	-0.08753966
101	0x3e24ddef	0.16100286
102	0x3e3ecf49	0.1863376
103	0xbec34c53	-0.38144168
104	0xbefad159	-0.48987845
105	0x3d8182c9	0.063237734
106	0xbe8a637f	-0.27029034
107	0xbeb00cc5	-0.34384742
108	0x3eaaf224	0.33387864
109	0xbeb095be	-0.34489244
110	0xbe5bc4d8	-0.21461809
111	0x3eb53ea1	0.35399345
112	0xbea00d74	-0.31260264
113	0x3dad4965	0.084612645
114	0x3ec318ce	0.38104862
115	0xbea68ca4	-0.32529175
116	0x3ec2da07	0.38056967
117	0xbf06616f	-0.5249242
118	0xbd0b63d3	-0.034030747
119	0xbf0e1a0e	-0.55508506
120	0x3ddb709f	0.1071484
121	0xbe45c016	-0.19311556
122	0x3e3e7c83	0.18602185
123	0x3e21acf7	0.15788637
124	0x3d1924c5	0.03738858
125	0xbee01d0d	-0.43772164
126	0xbea2a494	-0.31766188
127	0x3eb0f19e	0.3455934
128	0xbe5e1b61	-0.21690132
129	0x3e50ec98	0.20402753
130	0x3dd48d03	0.10378458
131	0xbf2326bc	-0.6373098
132	0x3e361647	0.17781936
133	0x3e6fd4b0	0.23420978
134	0xbf121e69	-0.5707765
135	0xbc45c0cc	-0.012069892
136	0xbe63ec65	-0.22258146
137	0xbe3723bc	-0.17884725
138	0xbca5e537	-0.0202509
139	0x3daf3a8c	0.08556089
140	0x3e17d028	0.14825499
141	0x3e69f277	0.22846399
142	0x3e84e4ba	0.25955755
143	0x3ed6d893	0.41962108
144	0xbd741b8e	-0.05959659
145	0xbcfeefeb	-0.031120261
146	0xbd254b53	-0.040355038
147	0x3eaf6572	0.34257084
148	0xbe1ce42c	-0.15321416
149	0xbeab250b	-0.334267
150	0x3e8d299c	0.27570808
151	0xbdc2567e	-0.09489153
152	0x3ec84d52	0.3912149
153	0x3f0703af	0.52739996
154	0x3be4c0dc	0.0069809984
155	0x3ef64081	0.48096088
156	0xbc75656f	-0.014977797
157	0xbe81eda5	-0.2537662
158	0xbe80abe7	-0.2513115
159	0xbec2ef6c	-0.3807329
160	0x3e90a7df	0.28253075
161	0xbe17e8b1	-0.14834858
162	0x3ea4f501	0.32218173
163	0x3ed588d7	0.41705963
164	0xbe3e540e	-0.18586752
165	0x3d259035	0.04042073
166	0xbf000cfa	-0.500198
167	0x3ec6dbf8	0.38839698
168	0xbeb537cc	-0.35394132
169	0xbe24dd44	-0.16100031
170	0xbdb2bd70	-0.087275386
171	0xbe0e4a6c	-0.13895577
172	0xbdb546e9	-0.08851416
173	0xbd520d8c	-0.05128245
174	0xbcd57727	-0.026057793
175	0x3dedba88	0.11607844
176	0xbe61f9f5	-0.22068007
177	0xbeb3e7fe	-0.35137933
178	0xbe932030	-0.28735495
179	0xbf1ea8af	-0.6197614
180	0xbf1d271a	-0.6138779
181	0x3e96daed	0.29463902
182	0x3e915568	0.28385472
183	0xbf14453c	-0.57918143
184	0xbf03ce15	-0.5148633
185	0x3eb0efe4	0.34558022
186	0x3ed9d97f	0.4254875
187	0xbe40e63f	-0.18837832
188	0x3ed4a85a	0.41534692
189	0x3ef2bfa8	0.47411847
190	0x3e77973b	0.24178784
191	0x3c86ba4e	0.016446259
192	0xbe1eb775	-0.15499671
193	0xbe918381	-0.28420642
194	0x3e0726d1	0.13198401
195	0x3e998b37	0.29989025
196	0xbeba43e9	-0.36379936
197	0xbe6cd0bc	-0.23126501
198	0xbe2e6400	-0.17030334
199	0xbe08cb8c	-0.13358897
200	0x3d2c04e0	0.041996837
201	0xbe755060	-0.23956442
202	0x3e1dd196	0.15411982
203	0xbe1f7b3a	-0.15574351
204	0x3d867e9b	0.06567117
205	0x3e88979b	0.26678166
206	0x3db80000	0.08984375
207	0xbf096e7d	-0.53684217
208	0xbe3505c3	-0.17677979
209	0x3c57b5b0	0.013165876
210	0xbda621d6	-0.081119224
211	0x3d9e5bd9	0.07732362
212	0x3efacb72	0.4898334
213	0xbe8617bc	-0.26189983
214	0x3d10bf0c	0.035338446
215	0xbea0c87d	-0.3140296
216	0x3ec1d575	0.37858167
217	0xbec677d4	-0.38763297
218	0xbed51017	-0.41613838
219	0xbda63bd2	-0.081168786
220	0xbe49af4c	-0.19695777
221	0x3f07e0bd	0.530773
222	0x3e0001b3	0.12500648
223	0x3f0f4b36	0.5597414
224	0x3dbfa31e	0.09357284
225	0xbe8d0eca	-0.27550346
226	0xbed5ceb9	-0.4175928
227	0x3e865cab	0.26242575
228	0xbed45bd7	-0.41476318
229	0xbed0f65a	-0.4081295
230	0x3c0aee05	0.0084796
231	0x3f027ea1	0.5097447
232	0xbc7ead7f	-0.015544294
233	0xbed46c06	-0.41488665
234	0x3ea3c62d	0.31987134
235	0xbe144192	-0.14478138
236	0x3ec2ef39	0.38073137
237	0xbd9bb652	-0.07603134
238	0xbe1af7c5	-0.15133579
239	0x3e89d226	0.26918143
240	0xbea5943a	-0.3233965
241	0x3e2b5136	0.16730198
242	0x3f0107c2	0.5040246
243	0xbe3b5f55	-0.18298085
244	0xbc2b7c4f	-0.010466649
245	0x3dd51385	0.10404114
246	0x3eb35179	0.35023096
247	0xbec06a21	-0.3758097
248	0xbf05292a	-0.52015936
249	0x3c3614ac	0.011113327
250	0xbe85325c	-0.26014984
251	0x3ed90ae1	0.42391112
252	0x3f239238	0.6389499
253	0xbf4d0fbc	-0.80102134
254	0x3e1e0e41	0.15435125
255	0xbd6c66eb	-0.057715338

linear_1.bias f4 [256]
0	0xbe35e81a	-0.17764321
1	0xbe25c3a2	-0.16187909
2	0xbdbfef0b	-0.09371766
3	0xbd0d4fd6	-0.034499966
4	0xbc5b9fbb	-0.013404782
5	0xbe9335af	-0.28751895
6	0x3d95ecef	0.07320582
7	0x398bc776	0.00026660756
8	0xbe010427	-0.1259924
9	0xbd6d6635	-0.0579588
10	0x3e365f36	0.17809758
11	0x3d1d3d46	0.038388513
12	0xbdf8e2b7	-0.121526174
13	0xbe467e53	-0.19384126
14	0xbdbb0db2	-0.091334715
15	0xbda89353	-0.08231225
16	0x3e2d2f99	0.16912688
17	0xbe4457bb	-0.19174092
18	0x3eed23df	0.4631643
19	0xbe7f43ac	-0.24928159
20	0xbe816afb	-0.25276932
21	0xbd9e4a2c	-0.07728991
22	0xbdcf1939	-0.10112233
23	0xbde52951	-0.11189521
24	0xbe9a8505	-0.3017961
25	0xbe212103	-0.15735249
26	0xbcf0772b	-0.029353699
27	0xbdb6fed2	-0.08935322
28	0xbe41bbcc	-0.18919295
29	0xbe5b6eb3	-0.21428947
30	0xbdbcbe3a	-0.0921597
31	0x3e04c66e	0.1296632
32	0x3c73dd34	0.014884282
33	0xbe48deb3	-0.19616203
34	0xbeb9db66	-0.363002
35	0x3df3bbb3	0.11901035
36	0x3ddec944	0.10878232
37	0x3e49fd0c	0.19725436
38	0xbe1ed91f	-0.15512513
39	0xbdbcd599	-0.09220428
40	0x3e1a484e	0.15066645
41	0xbeabf8d1	-0.3358827
42	0xbe6dc554	-0.23219806
43	0x3bc885e9	0.006119479
44	0x3d7d8726	0.061896466
45	0xbe78966c	-0.24276131
46	0x3e052be0	0.13005018
47	0xbe86017a	-0.26173002
48	0xbe9c9cb3	-0.30588302
49	0xbd5c409d	-0.053772558
50	0x3c53969a	0.012914324
51	0xbe6b16b0	-0.22957873
52	0xbde62ce9	-0.11239035
53	0xbe1f30b2	-0.1554592
54	0x3eb8ed67	0.36118624
55	0xbe37ef16	-0.17962298
56	0x3dce440b	0.10071572
57	0x3ef2e127	0.47437403
58	0x3de2f15a	0.110811904
59	0xbeafb49e	-0.34317487
60	0xbd462a59	-0.04838023
61	0x3d9ea131	0.077455886
62	0xbe0b9144	-0.13629633
63	0x3f07adbb	0.52999467
64	0x3d4ae837	0.049537864
65	0xbed90271	-0.42384675
66	0xbe88467c	-0.26616275
67	0x3d801ee5	0.06255893
68	0xbe7beadd	-0.24601312
69	0xbe927280	-0.28602982
70	0xbe4c06f0	-0.19924521
71	0xbe83e962	-0.25763994
72	0x3ec3b66c	0.38225114
73	0x3e7103b7	0.23536573
74	0xbe6e6d72	-0.23283938
75	0x3e92fac5	0.28706947
76	0xbea8556b	-0.3287767
77	0x3e1a5af4	0.15073758
78	0xbe4ebb3d	-0.20188613
79	0xbf1aae2f	-0.60422033
80	0xbda7baae	-0.08189903
81	0xbe139f83	-0.14416318
82	0xbe839871	-0.2570224
83	0xbde7b14d	-0.11313114
84	0xbe6383eb	-0.22218291
85	0xbe9ba90b	-0.30402407
86	0xbde18dc4	-0.11013368
87	0x3d6e4ef8	0.05818078
88	0xbe447957	-0.19186912
89	0x3dd1742a	0.10227235
90	0xbe9a3e4f	-0.30125663
91	0x3e3ee3ac	0.18641537
92	0xbe36c594	-0.17848808
93	0x3e7310ee	0.23736927
94	0x3e86a134	0.26294863
95	0xbe17073b	-0.14748852
96	0x3d8e5274	0.069493204
97	0xbe861a73	-0.26192054
98	0xbe11888b	-0.14212243
99	0xbe98d948	-0.29853272
100	0xbd928b54	-0.07155481
101	0xbd98c8ca	-0.074601725
102	0xbed0bc01	-0.40768436
103	0x3eb5e57a	0.3552664
104	0xbec12d8e	-0.37730068
105	0xbde5475c	-0.11195251
106	0xbe0fd315	-0.14045365
107	0xbeebf281	-0.46083453
108	0xbe34856c	-0.17629021
109	0xbe0fc63f	-0.14040469
110	0xbea8535d	-0.328761
111	0x3ea58c59	0.3233364
112	0x3b84d64f	0.004053868
113	0xbe76a171	-0.24085023
114	0xbdac6e39	-0.08419461
115	0xbe14383f	-0.14474581
116	0xbe7afa93	-0.24509649
117	0xbeb62a6f	-0.3557925
118	0xbdc62044	-0.09674123
119	0xbeacdaac	-0.33760583
120	0x3d9053d0	0.07047236
121	0xbd0c2bb7	-0.034221377
122	0xbd9908bd	-0.0747237
123	0x3eef5487	0.46744177
124	0xbdd8d952	-0.105883256
125	0x3df2a1ed	0.11847291
126	0xbe4615f5	-0.19344313
127	0xbea02048	-0.3127463
128	0xbeae917b	-0.34095368
129	0xbed79476	-0.42105454
130	0xbe3c723a	-0.18402949
131	0xbe27a17c	-0.16370195
132	0xbd862d8b	-0.065516554
133	0x3e9a5150	0.30140162
134	0x3f2adea2	0.6674596
135	0xbe853247	-0.2601492
136	0x3dc31efd	0.09527395
137	0xbdaeee63	-0.085415624
138	0xbe896c94	-0.2684065
139	0xbe8be8d0	-0.2732606
140	0x3e90fa71	0.28316072
141	0xbebb1ef0	-0.3654704
142	0x3dd22766	0.10261421
143	0x3dc1e261	0.094670065
144	0xbeb650e0	-0.35608578
145	0xbe7426a5	-0.23842867
146	0xbd858490	-0.06519425
147	0x3c17845c	0.0092478655
148	0x3d162c9e	0.036663644
149	0xbe30a6d6	-0.17251143
150	0x3e884cfd	0.26621237
151	0xbe6c005a	-0.23047009
152	0x3e03847f	0.12843512
153	0xbe154e0f	-0.14580558
154	0x3f06dc14	0.5267956
155	0xbd12b886	-0.035820507
156	0xbe80cf29	-0.2515805
157	0xbe4b6357	-0.19862114
158	0xbccfdd7e	-0.02537417
159	0xbe86cfcf	-0.2633042
160	0xbe660952	-0.22464493
161	0x3e880a85	0.26570526
162	0xbe2c8235	-0.16846545
163	0x3d9fe078	0.07806486
164	0x3e890108	0.267586
165	0xbe433e1b	-0.1906666
166	0xbe34d2c9	-0.17658533
167	0xbebec8c6	-0.37262553
168	0xbe5fa7af	-0.2184131
169	0x3e924390	0.2856717
170	0xbe487784	-0.19576842
171	0xbe37d795	-0.17953332
172	0xbeb31801	-0.3497925
173	0xbe153ee1	-0.14574768
174	0xbed9affa	-0.42517072
175	0xbe4acf9a	-0.19805756
176	0x3d36a501	0.044590954
177	0xbe426635	-0.18984301
178	0x3cd5a2ff	0.0260787
179	0xbe137859	-0.14401378
180	0x3ec9c699	0.3940933
181	0x3eab25a3	0.33427152
182	0x3eece984	0.46271908
183	0x3eaa8dca	0.333113
184	0x3ed0b032	0.40759426
185	0xbd964a87	-0.07338434
186	0x3ecbc9db	0.3980244
187	0xbe7b6afd	-0.24552532
188	0x3f1aa634	0.60409856
189	0xbe8403f9	-0.2578428
190	0xbce3bcd8	-0.027800009
191	0xbd8d18e8	-0.06889516
192	0x3cccc4ca	0.02499618
193	0xbe44f3fe	-0.192337
194	0xbe5a5320	-0.21320772
195	0xbe5a2d1a	-0.21306267
196	0xbd93262c	-0.07185015
197	0xbe7285ba	-0.23683825
198	0xbeac9d3c	-0.3371371
199	0xbd9187cf	-0.071059816
200	0xbe118336	-0.14210209
201	0xbdefb926	-0.11705236
202	0xbe2490db	-0.16070883
203	0x3e674221	0.2258382
204	0x3e075d75	0.13219245
205	0xbeea06ee	-0.45708412
206	0x3c974353	0.01846472
207	0x3e0c0481	0.13673593
208	0xbd03b831	-0.03215808
209	0xbe36d282	-0.1785374
210	0xbe42b51c	-0.190144
211	0x3f01aff4	0.5065911
212	0x3e0bf879	0.13669004
213	0x3d856c91	0.06514848
214	0xbe94c035	-0.29052892
215	0xbd3aa86d	-0.04557078
216	0xbd08cb45	-0.033396978
217	0x3d3287cc	0.043586537
218	0xbea2d272	-0.31801182
219	0xbe1d23e9	-0.1534573
220	0xbe492638	-0.19643486
221	0xbe98d230	-0.2984786
222	0xbebed95c	-0.37275207
223	0xbe311dc8	-0.17296517
224	0x3d1fb675	0.038992364
225	0x3c8fb1da	0.01754086
226	0x3e6b0221	0.22950031
227	0x3c98ef45	0.01866878
228	0xbe97caa9	-0.29646805
229	0x3f23feea	0.64060843
230	0xbd746741	-0.059668783
231	0xbd65ee69	-0.05613557
232	0xbe274d5d	-0.16338105
233	0xbe23e667	-0.1600586
234	0xbe6bb71e	-0.23019072
235	0x3eda75ab	0.426679
236	0x3e492134	0.19641572
237	0xbe55d671	-0.20882584
238	0xbd3c2573	-0.04593415
239	0xbe8b4f59	-0.27208975
240	0x3ea06d00	0.3133316
241	0x3d7f8f6f	0.06239265
242	0x3ec189f2	0.37800556
243	0xbd3b9ab6	-0.04580184
244	0x3eab618d	0.33472863
245	0xbe9d7c14	-0.30758727
246	0x3f08ba3d	0.5340918
247	0xbe740bc6	-0.23832616
248	0xbc03490d	-0.008013022
249	0xbbfd60ae	-0.0077324724
250	0xbeca0e45	-0.39464012
251	0xbe9f3aa3	-0.31099424
252	0xbee222bb	-0.44167122
253	0xbcecdca0	-0.028913796
254	0x3e2d934d	0.16950722
255	0xbe2a7454	-0.16645938

linear_2.weight f4 [3, 256]
0	0xbc85ceb2	-0.016333912
1	0xbf44d21f	-0.7688312
2	0x3e2eb827	0.17062436
3	0x3c2d773e	0.010587512
4	0x3d8ef4d7	0.06980293
5	0xbd814887	-0.063126616
6	0x3e9d737d	0.30752173
7	0x3d226ef2	0.039656587
8	0xbe9e68df	-0.30939385
9	0xbea4f9e8	-0.32221913
10	0x3e94df4f	0.2907662
11	0xbee7b8df	-0.45258233
12	0xbd7dcc64	-0.0619625
13	0xbeda90cb	-0.42688593
14	0xbe7c0e26	-0.24614772
15	0xb9e26927	-0.00043184424
16	0x3f09534e	0.5364274
17	0x3dee3582	0.116312996
18	0x3e449113	0.19195966
19	0x3e8e92ea	0.27846462
20	0x3e8e32d7	0.27773163
21	0xbea98907	-0.33112356
22	0xbf4f4e6e	-0.8097905
23	0x3e3e013a	0.18555155
24	0x3d643efe	0.055724137
25	0xbd32097e	-0.043466084
26	0xbcd7f884	-0.026363619
27	0xbcff5758	-0.031169578
28	0xbdd59026	-0.10427885
29	0xbe898f8c	-0.2686733
30	0xbdc10094	-0.094239384
31	0x3ee0775c	0.43841064
32	0xbec306cd	-0.38091126
33	0xbca3d29c	-0.019997887
34	0xbe6ef51d	-0.23335691
35	0xbede5ade	-0.434287
36	0x3eb5870e	0.354546
37	0x3ed249af	0.4107184
38	0xbd96f6ac	-0.07371268
39	0xbd060e63	-0.032728564
40	0x3eb616bb	0.35564217
41	0xbd3bd032	-0.045852847
42	0xbd87d2a1	-0.06631971
43	0x3d119651	0.035543744
44	0x3e48c8cb	0.19607846
45	0xbe784d4b	-0.24248235
46	0x3e87bbdc	0.26510513
47	0xbd938270	-0.07202613
48	0xbd86732d	-0.06564937
49	0x3ec7c2cc	0.39015806
50	0xbecff495	-0.4061629
51	0xbdfe545e	-0.124184355
52	0x3e18ae38	0.14910209
53	0xbea3d940	-0.32001686
54	0x3ef1b42c	0.47207773
55	0xbdf73a05	-0.12071613
56	0xbed34cab	-0.4126943
57	0x3d939327	0.072058015
58	0x3d424a81	0.047434334
59	0x3d145e04	0.036222473
60	0xbf198e7a	-0.59983027
61	0xbe4f7f57	-0.2026342
62	0x3de584a6	0.11206941
63	0x3eb30c50	0.3497033
64	0x3ed0e9b4	0.408033
65	0xbe8015c1	-0.25016597
66	0xbc65794a	-0.014005968
67	0x3eab764c	0.3348869
68	0xbd5a967f	-0.05336618
69	0xbd2f2ade	-0.04276549
70	0xbb6fa7fa	-0.0036568628
71	0xbe700dac	-0.23442715
72	0x3eac1b42	0.33614546
73	0x3ec5aa33	0.38606414
74	0xbdcbe7f8	-0.09956354
75	0x3d4c4957	0.04987463
76	0xbe8d8d11	-0.27646688
77	0x3e69912c	0.22809285
78	0xbee739da	-0.45161325
79	0xbe989d1b	-0.29807362
80	0xbeaca809	-0.3372195
81	0xbe50aca6	-0.2037836
82	0xbe325ab9	-0.1741742
83	0x3c0671d5	0.008205851
84	0xbd710085	-0.058838386
85	0xbc81b439	-0.015833007
86	0xbe97d069	-0.29651192
87	0x3e127fc7	0.14306556
88	0xbf21af8b	-0.6315848
89	0x3dcacbe0	0.09902167
90	0xbe1966ea	-0.14980665
91	0x3c6e1898	0.014532231
92	0xbb85ef02	-0.00408733
93	0x3e0653e9	0.13117947
94	0x3f186708	0.59532213
95	0x3c675df8	0.014121525
96	0xbe98eb3d	-0.29866973
97	0xbe3ebefe	-0.18627545
98	0xbe7716d0	-0.24129796
99	0xbea20cad	-0.31650296
100	0xbec030f1	-0.3753734
101	0xbd325f01	-0.043547634
102	0xbcc61cd9	-0.024183678
103	0x3e8826c8	0.26592088
104	0xbedd1018	-0.4317634
105	0x3c9f852e	0.019472685
106	0x3efbd7ef	0.49188182
107	0xbd19ba99	-0.03753147
108	0xbde4dfd0	-0.11175501
109	0xbdf93b78	-0.12169546
110	0x3d62d3b2	0.05537767
111	0x3dd2bb8a	0.102896765
112	0xbea62f67	-0.3245804
113	0xbe443d2e	-0.19163963
114	0x3e0e41e9	0.1389233
115	0x3e18ee9c	0.14934772
116	0xbd9bcd89	-0.07607562
117	0xbe4d011e	-0.20019957
118	0x3d891048	0.066925585
119	0xbe6a1d5d	-0.22862764
120	0x3e111be7	0.141708
121	0x3ee05017	0.43811104
122	0xbf29c983	-0.6632311
123	0x3e11cbd0	0.14237905
124	0xbee92bfa	-0.45541364
125	0xbee42394	-0.44558394
126	0x3c593aae	0.013258619
127	0xba30de00	-0.0006746948
128	0xbd334936	-0.04377099
129	0xbe92043e	-0.28518862
130	0xbe3d8f18	-0.18511617
131	0xbcf8fc58	-0.030393764
132	0x3ed17c62	0.4091521
133	0x3e8a30ad	0.26990262
134	0x3eccb9a7	0.39985391
135	0x3c9d60b2	0.019211147
136	0x3f017ae6	0.50578153
137	0x3dff615d	0.124697424
138	0xbe3ec0d5	-0.18628247
139	0xbd096028	-0.033538967
140	0xbb90f0b3	-0.004423225
141	0x3d0cd57e	0.03438329
142	0x3eeddc49	0.46457127
143	0x3ef1a359	0.47194937
144	0xb9a240ed	-0.0003094742
145	0x3dbc9443	0.09207966
146	0xbf043155	-0.51637775
147	0x3cfe9932	0.031078909
148	0xbecae855	-0.3963038
149	0xbe013c21	-0.12620594
150	0x3e6bf83d	0.23043914
151	0xbde72db3	-0.11288013
152	0x3d387522	0.04503358
153	0xbca5d6b7	-0.020243986
154	0x3e0b1c2a	0.13584962
155	0x3e4c1776	0.19930825
156	0xbdd43d07	-0.103632025
157	0xbd35c3db	-0.044376235
158	0xbc98612e	-0.018601026
159	0x3ba6b7c9	0.005087827
160	0xbcfc3431	-0.030786606
161	0x3e312132	0.1729782
162	0x3c3849a5	0.011248027
163	0x3e256f66	0.16155776
164	0x3e3e5751	0.18587996
165	0xbd8942d6	-0.06702201
166	0xbec0bc95	-0.37643877
167	0xbe77d55b	-0.24202482
168	0xbe1ee88d	-0.15518399
169	0x3eccfcc9	0.4003661
170	0x3e0f43b6	0.13990673
171	0x3c1fdb67	0.009756899
172	0xbe928eae	-0.2862448
173	0xbec1a4c8	-0.3782103
174	0xbe3fc29c	-0.18726581
175	0xbe95fbdc	-0.29293716
176	0x3da6adc8	0.08138615
177	0x3aa2178f	0.001236664
178	0x3e8cb025	0.27478138
179	0x3e13d27e	0.14435765
180	0x3e03686b	0.12832801
181	0x3ea7ad64	0.32749474
182	0x3eae8942	0.34089094
183	0x3eb14675	0.34624067
184	0x3e8d51cb	0.27601466
185	0xbe553338	-0.2082032
186	0x3f138e16	0.5763868
187	0xbe72bdb6	-0.23705181
188	0x3e9e345a	0.30899316
189	0xbe40a5ec	-0.18813294
190	0x3ebc9f21	0.36840156
191	0xbce3bdec	-0.027800523
192	0xbc8c415c	-0.01712101
193	0xbc8594fc	-0.016306393
194	0xbebb689a	-0.36603242
195	0xbea6601a	-0.32495195
196	0x3e4ea869	0.20181431
197	0xbde3e53c	-0.11127707
198	0x3c8929c3	0.016743546
199	0x3d88d94e	0.066820726
200	0xbd34d13f	-0.044144865
201	0xbd6d4aae	-0.05793255
202	0xbd04b791	-0.032401625
203	0x3e1d724e	0.15375635
204	0x3ce21b96	0.027601045
205	0xba8cdeff	-0.001074761
206	0x3e58f4fe	0.21187207
207	0x3d08e82d	0.033424545
208	0x3e220e78	0.15825832
209	0xbd7a9539	-0.061177466
210	0xbec629fd	-0.3870391
211	0x3e5b97d1	0.21444632
212	0x3df9bea2	0.121945634
213	0x3e9ae636	0.30253762
214	0xbd6c7654	-0.057730034
215	0x3edb4d8e	0.42832607
216	0xbc14703e	-0.009059964
217	0x3e822a50	0.25422907
218	0xbdbddb6d	-0.09270368
219	0xbe2e65b4	-0.17030984
220	0x3cebd650	0.028788716
221	0xbcfa3f7a	-0.030547846
222	0xbe40357e	-0.18770406
223	0xbe689a08	-0.22715008
224	0xbd77c450	-0.060489953
225	0xbd120854	-0.035652474
226	0x3b5ed83a	0.0034003393
227	0xbe3d0e19	-0.18462409
228	0xbe53e644	-0.20693308
229	0x3ea578f2	0.32318836
230	0xbd743e14	-0.059629515
231	0xbebd92b9	-0.37026003
232	0xbf20463f	-0.6260719
233	0x3e9628a4	0.2932788
234	0xbed192c7	-0.40932295
235	0x3ecf9773	0.40545234
236	0xbed431f4	-0.4144436
237	0xbec1ab42	-0.37825972
238	0xbd8471db	-0.06467029
239	0x3e0feeff	0.14056014
240	0x3dee7a10	0.11644375
241	0x3db38ef9	0.08767504
242	0x3eb8a0ec	0.36060274
243	0xbda56989	-0.0807677
244	0x3ef60ede	0.48058218
245	0x3cbf3bd6	0.023343962
246	0x3e9bc7ca	0.30425864
247	0xbe14b679	-0.14522733
248	0xbe14f78c	-0.14547557
249	0x3d9c08e2	0.07618882
250	0xbe2372ba	-0.15961733
251	0xbdea2fa0	-0.11434865
252	0xbcbcbf79	-0.02304052
253	0xbce1e73f	-0.027576087
254	0x3dffb30a	0.12485321
255	0xbe5a5d01	-0.2132454

linear_2.bias f4 [3]
0	0x3e2b620c	0.1673662
1	0x3dbf9ab2	0.09355678
2	0x3e0b6fa4	0.13616806
