Code/model/model.pth (torch, 17673 bytes, 4 tensors)

linear_1.weight f4 [256, 11]
000000 84 68 4c 3d 77 e4 da 3e 34 44 21 3f 10 03 52 bc
       0.04990436 0.4275243 0.62994695 -0.012818113
000010 09 55 e8 bd 6f 4f 22 be 65 f6 36 be 68 de 9f 3e
       -0.11344344 -0.15850614 -0.1786743 0.3122437
000020 c0 ed 74 3e 5f ee 27 3e e5 aa 2f 3e 09 57 2f 3d
       0.2391882 0.16399525 0.17155035 0.042807613
000030 a8 61 f5 3e 4e 25 a6 3e 5c 42 90 be 4e e1 15 be
       0.47926068 0.32450336 -0.28175628 -0.14636728
000040 06 9a bb be 14 ce af 3c b9 5c b2 bc 3b 80 d5 bc
       -0.36640948 0.02146057 -0.02177273 -0.026062122
000050 c1 23 bd be 75 db a8 bc 57 8e 4f bd bf 48 e9 bb
       -0.3694134 -0.020612458 -0.050672855 -0.0071192677
000060 56 43 f3 be 38 1d 12 be 89 60 bd be d6 3a 9d 3e
       -0.4751231 -0.14268959 -0.36987713 0.3070895
000070 cb 74 b4 be d2 5c 8f be ef 6e d2 bd 54 b8 49 be
       -0.35245356 -0.28000504 -0.10275065 -0.19699222
000080 6e 38 de 3e 3d f2 ba bc 4c c4 96 3c 36 d6 d4 3e
       0.43402427 -0.022820586 0.018404149 0.4156968
000090 c8 cc f7 3d ef 23 97 bd c6 85 60 bf f3 8e 15 be
       0.12099606 -0.07379901 -0.8770412 -0.14605312
0000a0 9f fd 6d 3e bb 04 c6 be 56 de 0e be 92 8f 0f bf
       0.2324128 -0.38675484 -0.13952002 -0.56078446
0000b0 54 79 cb 3e 93 e6 68 be 28 d0 aa bd ca 55 0b 3d
       0.39741004 -0.22744207 -0.08340484 0.03401736
0000c0 0e 28 c5 bd 28 f7 40 3e 8b 11 8b bd 04 a2 07 bf
       -0.096267805 0.18844283 -0.067904554 -0.5298159
0000d0 e0 29 63 be 1e 84 36 bc 3d 30 15 3e b0 a7 0e be
       -0.22183943 -0.011139898 0.14569183 -0.13931155
0000e0 1c ff 61 be 60 8b c9 3c 2b 9e 8f be 6f 1b 96 be
       -0.22069973 0.024602592 -0.2805036 -0.29317805
0000f0 9d 38 5d be c6 cd 84 be 80 cd c1 3d e2 4b 4a 3e
       -0.21603628 -0.25938243 0.09463024 0.1975551
000100 f0 09 1e 3d 1d e1 04 be 56 f4 d9 3e 1e 70 8a 3d
       0.038583696 -0.12976499 0.42569226 0.06759666
000110 19 5f 4a 3d 27 86 dd 3e ed 03 0d 3d 73 c2 dc bd
       0.0494071 0.43266413 0.034427572 -0.10779276
000120 21 e6 21 bf 4d 7f e6 be 0f 3c a2 bd ed 75 da bb
       -0.63241774 -0.45018998 -0.079216115 -0.00666689
000130 4e f2 11 3f 14 0b 86 3d c3 6f e0 bd d4 03 f8 be
       0.5701035 0.06545082 -0.10958817 -0.4844042
000140 f1 b5 ba 3e 46 83 89 3e db 97 9c 3e 53 59 81 be
       0.36466935 0.26857966 0.30584607 -0.2526346
000150 12 6b 7e be 41 0c 17 bf 92 7e fb bd 57 21 dd 3e
       -0.24845532 -0.5900307 -0.12280001 0.431895
000160 ac 62 8b be dc a5 19 be 06 da 0a be 71 b4 9b be
       -0.27223718 -0.15004677 -0.13559732 -0.30411103
000170 6f 80 cc 3e 58 3a a2 3e 27 3e 96 be e7 6d e5 be
       0.39941737 0.31685138 -0.29344293 -0.4481041
000180 9b 3d a8 3e b8 b0 17 3e 31 90 d0 be c5 07 94 bd
       0.328595 0.14813507 -0.4073501 -0.072280444
000190 f6 a4 9d 3c 64 43 16 3e be 22 7e be 8f aa e5 be
       0.019243699 0.14674145 -0.2481794 -0.44856688
0001a0 27 b0 33 be 80 28 09 3f 7e c7 76 3e 3b a9 54 be
       -0.17547666 0.53577423 0.24099538 -0.20767681
0001b0 e2 f6 3f 3e 89 a5 fc be c2 98 02 3e 6e 4a 8a be
       0.18746522 -0.49345043 0.12753585 -0.2700991
0001c0 c6 55 28 3c a9 c2 bb 3e d0 4c 44 bf b2 40 9c 3d
       0.010274356 0.3667195 -0.76679707 0.07629527
0001d0 47 50 23 be 05 98 b1 3e 31 a6 ff be d8 e7 37 bf
       -0.15948592 0.34686294 -0.4993148 -0.7183814
0001e0 a6 0d 5a bf 70 09 b4 3b d6 62 bc be b6 40 97 3e
       -0.85177076 0.005494289 -0.36794156 0.29541558
0001f0 f6 41 02 bd a9 60 4f bd 08 c0 53 be 95 62 dd 3e
       -0.031801187 -0.05062929 -0.20678723 0.43239275
000200 7e d6 44 bd 03 eb 5c bf 61 1d 1a bf 3d 8e 95 3e
       -0.04805612 -0.862961 -0.6020108 0.29210082
000210 78 ab 5f bd 11 9d a4 be 0a 1e ed be e1 f6 f5 be
       -0.054606885 -0.32151082 -0.4631198 -0.48039916
000220 3d af f9 3e cc 53 b5 be 84 96 47 3e 0c 0b ae be
       0.4876651 -0.35415494 0.19491011 -0.33992803
000230 56 03 f6 3d 7b a6 27 bf bd 1f d8 bc 66 09 dd bd
       0.12012355 -0.65488404 -0.026382321 -0.10792808
000240 1f ba c8 bd e7 8d c8 bd df 01 d1 3d 3e f3 78 be
       -0.09801125 -0.09792691 0.10205435 -0.2431154
000250 26 e1 84 be 84 7f ee 3d c1 06 4c bd 60 1f b2 3e
       -0.25953025 0.116454154 -0.04981113 0.34789562
000260 2e 47 d9 be 9f 17 7e be 2e de 6b bd 38 f7 cc 3d
       -0.42437118 -0.24813698 -0.057584934 0.10008091
000270 7b ad 97 3b 91 d7 c6 be 35 b3 8f bd c9 26 be 3e
       0.004628835 -0.3883634 -0.07016603 0.37138966
000280 39 9f ab 3e a3 47 0d bf 93 fb 02 bf 80 76 d0 3e
       0.33519915 -0.55187434 -0.5116512 0.40715408
000290 4f dd 29 3d be 9a 9e 3e 2e 43 85 bd 5b 3b 77 3a
       0.041470822 0.30977434 -0.06506954 0.0009431147
0002a0 f4 1b e2 3d 39 b7 6f be c7 28 b0 3e c9 4e 46 be
       0.11040488 -0.23409738 0.3440611 -0.19365992
0002b0 cf 67 d4 bc 57 ec 2f 3e 27 f1 fc be a6 a8 70 3d
       -0.025928406 0.1718 -0.49402735 0.058754586
0002c0 89 3f 5c 3e e0 be cd be a2 c8 ad bc 73 ad 87 be
       0.21508612 -0.4018469 -0.021213833 -0.2649952
0002d0 fe 37 d3 bd 27 c2 ea 3e f3 47 84 3e c3 51 5f 3e
       -0.10313414 0.4585125 0.25836143 0.21808533
0002e0 b8 86 6e 3d 6c c6 ea be e0 05 c3 be 44 f6 b6 3e
       0.058233947 -0.4585451 -0.3809042 0.3573476
0002f0 96 42 32 be 10 a7 b9 bd 86 cb 74 3e c0 bf 4c 3e
       -0.17408213 -0.09065068 0.23905763 0.19995022
000300 b8 12 87 be 35 40 b0 be fd fe 67 be c5 29 14 bf
       -0.2638147 -0.34423986 -0.22655864 -0.57876235
000310 cd 00 b6 3e b1 ab b6 3e 84 67 30 3d b6 f8 2b 3e
       0.35547486 0.35677865 0.04306747 0.16794094
000320 75 4d bf 3d d4 fc 02 3e e4 4a 1f bd a2 07 fc bb
       0.09340946 0.12791759 -0.03888978 -0.0076913396
000330 d7 73 03 bd c9 fb 63 3e 50 d0 ee 3e 6e 23 88 3e
       -0.032092895 0.22264017 0.46643305 0.2658953
000340 47 f1 d1 3e ca f0 cd 3c 9d d2 1d 3f 55 7a c8 be
       0.41004393 0.025139231 0.61649495 -0.39155832
000350 c1 67 bb 3d 60 d4 0d be 1c b9 a0 3e a7 fb ea be
       0.09150649 -0.13850546 0.31391227 -0.4589512
000360 fd 04 39 bd e9 64 9b be 13 a3 e5 bd 64 7a a2 be
       -0.045170773 -0.30350426 -0.112127446 -0.31734002
000370 90 a4 01 3a 42 1d 0b 3f 7f 51 1f 3f 48 36 25 3d
       0.0004945481 0.5434152 0.6223373 0.04033497
000380 d9 79 c5 bc ed 3f c2 be 9a d4 1a 3e c8 53 98 3e
       -0.024105953 -0.37939397 0.15120164 0.2975142
000390 5e ff b8 3e c9 2f d5 3e 61 22 c3 3d d6 fb 84 3e
       0.3613233 0.4163802 0.09528042 0.25973386
0003a0 ff 4b 16 be 1c 38 80 be 36 0d e7 3e 99 8e 31 bf
       -0.14677428 -0.25042808 0.45127267 -0.6935821
0003b0 b5 47 e0 bc b4 96 d3 bd a4 cd 81 3e dc cb 3c bf
       -0.027377943 -0.10331479 0.25352204 -0.73748565
0003c0 00 b5 27 bf 8b 2f 2a bf c5 68 3f be 19 f9 eb 3d
       -0.6551056 -0.66478795 -0.1869231 0.11522121
0003d0 71 ac 2a 3b 1a 4d 67 3e 08 84 23 bd cf d6 0a bf
       0.0026042724 0.22588006 -0.039920837 -0.5423402
0003e0 b9 f5 39 3e 9d 5c cc bd 30 71 89 3e fb 60 05 bf
       0.18160142 -0.09978602 0.26844168 -0.52101105
0003f0 f9 cd c6 bd ce 39 b2 3e e9 2e c3 be 32 88 69 bc
       -0.09707255 0.34809726 -0.38121727 -0.014253663

linear_1.bias f4 [256]
000000 b8 85 e9 bd a5 fc 04 be 58 fa 11 be 98 64 58 3e
       -0.11402458 -0.12987001 -0.14255655 0.21132123
000010 17 f1 ed 3e 88 08 40 be 15 83 ba 3b 2a 9c b6 be
       0.46473 -0.18753254 0.0056918957 -0.3566602
000020 24 28 cb 3d 67 ec 97 be 07 33 0c 3e d0 71 78 bd
       0.099197656 -0.29672548 0.1369134 -0.060655415
000030 8b 80 d9 3e 64 7a 0e be ed 1b 37 bc ec 06 08 be
       0.42480883 -0.13913876 -0.011176092 -0.1328389
000040 ca f7 4e 3d b1 ee 4c bc 20 55 ff be 13 de c8 3d
       0.05052928 -0.01250808 -0.49869633 0.09807982
000050 b0 91 85 be 5a 26 94 3d 0b 4d e5 3d 9b 41 2b be
       -0.26087713 0.072338775 0.111963354 -0.16724245
000060 34 74 ba be af b5 94 be 48 c0 95 3e 9b 5b ff 3e
       -0.3641678 -0.29044864 0.2924826 0.49874577
000070 1e a7 f5 3d f7 12 02 3f 4b b5 d6 be e2 6b c4 be
       0.11994766 0.5081019 -0.4193519 -0.38363558
000080 d9 11 80 be 89 b2 02 3e 1c d6 1f be 85 47 9e bc
       -0.25013617 0.12763418 -0.1560902 -0.019321213
000090 6c ef 9d be e7 56 27 bd c6 39 6c be 33 db 1b 3b
       -0.30846727 -0.04085436 -0.23068914 0.0023781776
0000a0 45 ca a9 be 4e d9 2f bd 0c 83 33 be c5 0d 77 be
       -0.33162132 -0.042931847 -0.17530459 -0.24126346
0000b0 87 99 74 be 24 5b 3a be 26 74 6a be 88 9f bd be
       -0.23886691 -0.1819883 -0.2289587 -0.37035775
0000c0 19 5a fa 3d 8a b5 04 bf da db b7 bc ec a3 07 3f
       0.12224216 -0.51839507 -0.0224437 0.529845
0000d0 55 e4 7f be 1b 13 4a be 74 3b fa 3e a0 a8 67 be
       -0.24989446 -0.1973385 0.48873484 -0.22622919
0000e0 fa d7 37 be ea 7f 8f 3e bd a1 81 3e 56 bd 85 be
       -0.17953482 0.28027278 0.2531871 -0.26121014
0000f0 5b fa 59 be 10 3c 8d bd 05 14 7e be 84 e3 75 be
       -0.2128691 -0.06896222 -0.24812324 -0.24012572
000100 27 3e 66 3e e6 f9 16 be c2 28 c4 3d ab 02 55 be
       0.22484647 -0.14743766 0.095780864 -0.20801799
000110 d2 fe 83 be 7e d9 e1 be d6 59 d2 3a 1a f5 35 3f
       -0.2578035 -0.44111246 0.0016048502 0.7107712
000120 b7 a6 2d be 6c e3 99 be 5f b9 07 3d a4 94 f4 be
       -0.16958128 -0.30056322 0.033135768 -0.47769654
000130 ed 17 9a be 60 bc 64 3e 20 7d b6 be aa 43 10 3e
       -0.3009638 0.22337484 -0.35642338 0.14088312
000140 8a fa 5e be 97 2e 03 be 66 50 ae be 90 82 c7 bc
       -0.2177526 -0.12810741 -0.34045714 -0.02435425
000150 95 9c af bc 5f 67 9a be 09 66 ad bd 70 93 28 be
       -0.021436969 -0.3015699 -0.08466727 -0.16462493
000160 1f 09 9d be 72 1d 1b be 91 77 0f be f9 05 dc be
       -0.3067102 -0.15147951 -0.14010455 -0.42973307
000170 88 06 06 3f ad ec 3e be 05 20 49 be 10 1e 26 be
       0.52353716 -0.18644972 -0.1964112 -0.16222405
000180 58 0c 2b 3e f2 78 c4 3d 95 6a 97 bd a1 54 84 be
       0.16703928 0.09593381 -0.07393376 -0.25845817
000190 54 8a 67 3e 4b b3 b0 3c 1f 88 a3 3e 36 f4 45 be
       0.22611362 0.021569869 0.3193979 -0.1933144
0001a0 3f fc dc be 17 e2 df be 67 77 44 be 1b b7 b9 be
       -0.43161198 -0.4372718 -0.19186173 -0.3627251
0001b0 b3 01 fc bb a0 18 ac bd 36 30 e0 3d 70 52 5c be
       -0.0076906323 -0.08403134 0.109466955 -0.21515822
0001c0 df 88 9a be fa da 24 bd 3e 80 de bd 06 49 57 be
       -0.3018255 -0.040247895 -0.10864304 -0.2102395
0001d0 2d 6c b4 be 3c c1 bd bd aa bc 0d be 03 e7 74 bc
       -0.35238782 -0.09265372 -0.13841501 -0.014947656
0001e0 ee 59 2e 3d 73 29 87 bc a7 87 04 bd cb d6 a5 3c
       0.042566232 -0.016499257 -0.03235593 0.020244023
0001f0 4d b7 0b be 94 22 ad be 03 2e a3 3d 36 b0 81 be
       -0.13644142 -0.33815444 0.079677604 -0.2532975
000200 13 e4 03 3f e2 89 0b 3f 41 70 a5 ba d8 f5 36 be
       0.5151989 0.5450727 -0.0012621955 -0.1786722
000210 62 6c 8d be c1 6e 1e be ce a3 5c be 28 bb e2 be
       -0.27621752 -0.15471937 -0.21546862 -0.44283414
000220 35 f5 f4 bc 3e f8 d8 bd 87 d9 06 3e 8d 5f 10 be
       -0.02990208 -0.105942234 0.13168918 -0.1409895
000230 29 20 c7 be 8a e5 4e 3d 3f bb 9f be 7f 53 a2 be
       -0.38891724 0.050511874 -0.31197545 -0.31704327
000240 76 d3 bc be 3f ba 8d bd fc ed 8d bd 25 cb c8 be
       -0.36880082 -0.06920289 -0.069301575 -0.39217487
000250 be 51 04 be 69 2b 4b 3d 3c 9e 49 be b8 d0 40 bd
       -0.12921807 0.049601946 -0.19689268 -0.04707405
000260 53 10 3c be a1 df 66 be a2 b3 77 3e 73 38 1c be
       -0.18365602 -0.22546245 0.24189618 -0.15255909
000270 bb 04 d6 3d d7 cb 5d 3b 35 bd b4 3e d5 f0 88 3e
       0.10450121 0.0033843422 0.35300604 0.2674624
000280 27 95 3a 3d 12 66 7b be 7b b7 8a 3d 97 4f 5b bd
       0.0455524 -0.24550655 0.06773277 -0.0535427
000290 65 6e b2 3c 3d e6 5b be 40 f8 5f 3e d9 6d a5 3e
       0.021781156 -0.21474548 0.21872044 0.3231037
0002a0 cc 1b d0 be 0b 44 ce bd 88 7d 4f be 06 55 22 be
       -0.40646207 -0.10071572 -0.2026273 -0.15852746
0002b0 06 6d 17 be f5 dd a1 3e 15 0a 54 3e e6 6d 0b be
       -0.14787683 0.31614652 0.20706971 -0.13616142
0002c0 a2 9d 70 be 7f bc 38 be ca 47 17 be ca 19 9f 3e
       -0.23497632 -0.18040656 -0.14773479 0.31074363
0002d0 e1 50 d4 be 54 03 63 be 6b 22 ec bd 30 27 08 be
       -0.41467956 -0.22169238 -0.11530002 -0.13296199
0002e0 8a 26 4b be 71 9c 96 be 6e 0e 8b be 82 7b a7 bd
       -0.1983892 -0.2941623 -0.27159446 -0.08177854
0002f0 21 c2 8b 3e 2d 69 55 be fe e5 39 3e 0e f6 87 bd
       0.27296546 -0.20840903 0.18154141 -0.06638728
000300 83 14 4c be 3e 26 3e be 66 b4 a1 be 87 4d d2 bd
       -0.199297 -0.18569276 -0.31582946 -0.102686934
000310 c6 a6 03 be f7 ac e8 bd ab d9 06 3f 1b e2 be be
       -0.12856588 -0.113611154 0.52675885 -0.3728188
000320 dc bc ad 3d ed 4d 31 be b8 22 9a bd 7d d3 4c be
       0.08483288 -0.17314883 -0.07526153 -0.20002551
000330 31 53 2e 3d a4 51 2d be c0 60 b3 be cd 70 2f be
       0.042559806 -0.16925675 -0.35034752 -0.17132874
000340 01 eb 83 be 12 cd 82 3e 82 03 73 be d3 ad 9e bc
       -0.2576523 0.2554708 -0.23731807 -0.019369995
000350 08 13 b8 be 63 f1 c1 be 14 28 1c be 1c 49 84 be
       -0.3595202 -0.37879476 -0.15249664 -0.25837028
000360 69 28 12 be a4 f4 0e bf f2 47 f8 be 8d 4f eb bb
       -0.14273228 -0.5584204 -0.4849239 -0.007181114
000370 ca c8 6c be ad 4d fa bc 37 67 84 bd b4 d5 d3 bc
       -0.2312347 -0.030554617 -0.06464999 -0.025858738
000380 ff ee c3 3d 80 16 a5 be c7 a4 58 bd c0 3a f9 bd
       0.09567069 -0.3224373 -0.05289152 -0.12169409
000390 2e bc c3 be 8f f3 01 3e 08 54 66 be 25 46 31 be
       -0.38229507 0.12690566 -0.22492993 -0.17311914
0003a0 a5 7e ce 3c 51 dd 15 3c b9 da 15 be f3 d9 29 be
       0.025206873 0.009147004 -0.14634217 -0.16587047
0003b0 69 17 65 3e 48 c8 5e 3e 89 0c d6 be 1a a4 e0 bd
       0.22372212 0.21756089 -0.4180644 -0.109688
0003c0 04 34 19 3d f6 44 a9 3d d8 6c d4 3e 5e cb 26 be
       0.03740312 0.082651064 0.4148929 -0.16288516
0003d0 37 a6 3f bc df cd 6a be 6a aa c3 3b 5e 09 97 3d
       -0.011697344 -0.22930096 0.0059712427 0.073748335
0003e0 35 81 9e be 4b f8 ee 3e f1 03 df bd 11 65 29 3f
       -0.30957952 0.46673808 -0.10889424 0.6616984
0003f0 e8 3e 36 3e 5d f3 9b 3e 64 0b 06 be e5 e5 93 be
       0.17797434 0.3045911 -0.13090283 -0.28886333

linear_2.weight f4 [3, 256]
000000 49 8b 61 bd 13 76 ed 3c f1 9f ca bd ee ec 75 3e
       -0.055064473 0.028986966 -0.09893788 0.24016163
000010 b3 c4 a6 3d 68 69 d7 3c ed 64 19 bf b4 27 ee be
       0.08142986 0.026295379 -0.59919626 -0.46514666
000020 55 6a be 3e a5 f2 ab bd 90 7c ef 3e 44 f0 7a 3e
       0.371905 -0.0839589 0.4677472 0.24505717
000030 d9 8b c1 3e 3b 5a e7 bd 9b 04 ed 3e ba b6 34 bd
       0.37802008 -0.11296507 0.46292576 -0.044119574
000040 ee 88 85 be d7 cc ea be a7 5f 0b be 4f e7 49 3e
       -0.26081032 -0.45859405 -0.13610707 0.19717143
000050 ff 52 e7 bc 75 d2 ed 3e 75 22 0f 3e 01 e7 0b be
       -0.028237818 0.46449628 0.13977988 -0.1366234
000060 94 3c 1e bd c9 7e 0f be a8 24 89 3e 64 e7 aa 3e
       -0.03863199 -0.14013208 0.2678578 0.33379662
000070 bf de fe 3e 1a 9f ea 3e 73 c5 6c be 95 c9 52 bb
       0.49779317 0.4582451 -0.23122196 -0.003216361
000080 7c 38 58 bd 1e 35 21 bf 3c f7 0e 3f 5c 9b f0 3e
       -0.052788243 -0.62971675 0.55846 0.4699353
000090 40 82 6b be 9e 9f c8 3b 7e a7 1f bd 36 60 d4 3e
       -0.22998905 0.0061225435 -0.038978092 0.41479653
0000a0 94 d6 05 be fe 69 3d be fd 0b 38 be bf 7a fc bd
       -0.13070136 -0.18497464 -0.17973323 -0.123280995
0000b0 35 15 3d 3b c6 c3 1e bd 49 d2 d0 3c db 0b 4b be
       0.0028851752 -0.038760923 0.025490897 -0.19828741
0000c0 aa 45 a2 3e ad 7d f3 bd d5 4c 6f 3d 0a 74 d2 3e
       0.31693774 -0.11889205 0.058422882 0.41104156
0000d0 df 3d 4d bc 92 d1 9e 3e 9d 5d d7 3e af 46 89 bd
       -0.012526958 0.31019264 0.4206361 -0.06702935
0000e0 32 ae 48 3d 1a 02 23 3e cb f1 bd 3e 70 05 25 bd
       0.04899425 0.1591877 0.37098536 -0.04028839
0000f0 d5 da 0a 3e 5a 22 a0 bd a8 8b 04 bd 30 b8 e9 bd
       0.1356004 -0.07819052 -0.03235975 -0.11412084
000100 35 be 0f 3e 84 88 27 be 01 cc 93 3d ac 3b 24 bf
       0.14037402 -0.1636067 0.07216645 -0.6415355
000110 f8 5d 49 bd 48 a8 85 be 02 07 bc be ec 0b e1 3e
       -0.04916188 -0.2610495 -0.36724097 0.43954408
000120 d6 a0 39 bd ba fd a4 bc 57 f5 6e 3e e8 54 c8 3b
       -0.0453194 -0.020140518 0.23335777 0.0061136372
000130 56 e9 a5 bd 1a 7d 08 3e 7e 7f 4e bd a6 dc 97 3d
       -0.08101146 0.13328972 -0.050414555 0.07415132
000140 53 3a 81 bd af 1e 7e be b7 8f 41 bd e6 66 b7 3e
       -0.063099526 -0.24816392 -0.047256198 0.35820693
000150 fa 32 53 be 14 3c 12 bf 6f 7e bb 3d c3 df b2 bb
       -0.20624915 -0.5712292 0.09154975 -0.0054588034
000160 af 0c 8a be 75 45 90 bd 23 ac 4b 3e 26 ea f3 bd
       -0.26962802 -0.07044498 0.19889884 -0.11909895
000170 27 ce d3 3e 43 46 46 be 37 88 ec ba fd 46 39 bd
       0.4136822 -0.1936274 -0.0018045966 -0.045233715
000180 2f e0 8d 3e d4 8b 07 3f 65 12 92 3c fc 96 cb be
       0.277101 0.52947736 0.017831037 -0.3976363
000190 3e ee 69 3e 30 f2 9e be 57 7b 92 3e 06 32 5f bd
       0.22844788 -0.3104415 0.28609726 -0.054491065
0001a0 f2 79 de 3b 2c b4 9c bd 1b 34 03 be 0a 87 1c be
       0.0067894394 -0.076515526 -0.12812845 -0.15285888
0001b0 55 42 11 3d 68 fb a5 be be 4e dc 3d aa e2 9d be
       0.03546365 -0.3241837 0.107572064 -0.30836993
0001c0 5b 7a a6 bd b0 4c ad be 9f 9b 2f 3e 6e 71 81 3c
       -0.08128806 -0.3384757 0.17149208 0.015801158
0001d0 08 72 05 be cb cf 24 bd 63 08 6e bd 2d 1b 84 be
       -0.1303178 -0.04023723 -0.058113467 -0.25801983
0001e0 91 ab 92 be 8c 16 e9 3d f2 a0 c8 3e 7c 20 25 3d
       -0.2864652 0.113812536 0.39185292 0.040314183
0001f0 40 b9 dc be 59 82 2a ba 5b 8a 4f 3e 5b 7a a1 be
       -0.43110085 -0.00065044087 0.20267622 -0.31538662
000200 be 27 d7 3e 06 3a ae 3e 20 a3 e8 be 86 c1 01 bc
       0.42022508 0.34028643 -0.45436954 -0.007919675
000210 15 f3 6c bc 01 1f 71 3b 11 64 5b bf 29 fe 52 bd
       -0.014462252 0.0036792161 -0.85699564 -0.051511917
000220 96 20 89 3b fd f9 39 be 3b d0 9e be b0 9b bd bd
       0.0041847927 -0.18161769 -0.31018242 -0.09258211
000230 a8 21 20 3b c0 fd fe bd ca 87 89 be 8c 4c 9c bc
       0.0024434123 -0.12450743 -0.2686141 -0.01907947
000240 ce 0a 2c be 05 7a f4 bb dc 77 08 bf e4 a2 99 bd
       -0.16800997 -0.007460835 -0.5330789 -0.07501772
000250 66 99 9c be e3 52 06 3e d3 3d 4e bd aa a1 51 be
       -0.30585784 0.13117556 -0.05035193 -0.20471826
000260 eb e3 c0 bd 2d 89 d4 bd 1f 51 98 3e 45 3b d2 3e
       -0.09418472 -0.10377727 0.2974939 0.41060844
000270 81 da 6a be a5 ec dc be cb 04 ae 3e 21 fe 0e 3e
       -0.22934915 -0.43149295 0.33988032 0.1396413
000280 c0 14 d5 be 62 bd 41 bd 5a 66 b2 be 77 58 c2 3c
       -0.41617393 -0.04729975 -0.34843713 0.023723824
000290 6b 14 a5 3e 74 e8 62 be 22 ac 3b 3e 9a 75 aa 3e
       0.3224214 -0.22158986 0.18327382 0.33292848
0002a0 e3 89 55 be 56 e0 33 3e d7 a8 8a bd d8 36 a2 b9
       -0.20853381 0.17566046 -0.06770485 -0.0003093991
0002b0 a2 af 92 bc 2e 92 51 3e 82 77 6d 3d 11 1f 68 be
       -0.017906014 0.2046592 0.0579753 -0.22668101
0002c0 df 68 8c be 5d 97 02 bf 7b f8 c3 3a 13 88 4c 3e
       -0.2742376 -0.5101221 0.0014951372 0.19973783
0002d0 c7 84 ac 3c e8 22 ed 3c 1a b1 14 bf 91 92 fd be
       0.021059407 0.028947309 -0.58082736 -0.49525884
0002e0 50 b5 be 3d c2 cf 13 3d 53 60 53 be b0 fd 17 3f
       0.09311926 0.036086805 -0.20642214 0.5937147
0002f0 08 a4 ac 3e 06 b2 ba bd ab 31 f4 be cd 95 5c 3e
       0.33718896 -0.091159865 -0.47694144 0.2154152
000300 e9 1a fd bd 53 ca b4 be e2 b9 d4 be b6 cd fa bd
       -0.12358648 -0.3531061 -0.41548067 -0.122462675
000310 1a 42 ab 3d 9e 38 1a bc 0a 06 bc 3e 1d 01 62 bd
       0.08362217 -0.009412913 0.36723357 -0.055176843
000320 af 4f e9 3d d0 d3 42 bd ac 63 72 3d 95 2b 54 be
       0.113921516 -0.04756528 0.059177086 -0.2071975
000330 e4 4f e9 3d 78 33 55 bd 9e b9 e6 bd 1b b7 2d 3d
       0.11392191 -0.052051038 -0.112658724 0.04241095
000340 04 1e 10 be 32 20 89 3d d6 a4 33 bd 01 d7 37 3c
       -0.1407395 0.06695594 -0.04385837 0.0112206945
000350 c3 c0 4a be b8 d0 c3 bc e7 0b 43 be 7e 66 12 bd
       -0.19800095 -0.023903236 -0.19047509 -0.035742275
000360 c1 47 20 bd ed 83 61 be 08 ed 3e be 8a 73 fb 3e
       -0.03913093 -0.22022982 -0.18645108 0.49111587
000370 2f 05 9d be c3 a5 f8 be d2 9a 8b be a0 f2 31 bc
       -0.30668017 -0.48563966 -0.27266556 -0.010861069
000380 91 eb 02 3f 1a 13 22 be da 8c 92 bb 5f 53 42 bc
       0.51140696 -0.15827599 -0.004472357 -0.0118606975
000390 08 e7 39 be f8 0e b0 3e b1 02 31 bd 35 ae 2e be
       -0.18154538 0.3438642 -0.043215457 -0.17058642
0003a0 e2 5d 35 3e 21 4e 23 be 7f 77 3e bc 19 d9 f4 be
       0.17711595 -0.15947773 -0.01162517 -0.47821882
0003b0 84 4f a2 be 38 16 b6 3e cd 2d 0d be 02 ab 12 3e
       -0.3170129 0.35563827 -0.13787003 0.14323047
0003c0 0e fa 27 3e a5 18 d1 3d 76 ee 6e 3e b5 3b d3 be
       0.16403982 0.10209779 0.23333153 -0.4125649
0003d0 e2 f4 77 3e 9a 2f be 3e e3 ed d4 be 87 c4 cd 3e
       0.24214509 0.37145692 -0.41587743 0.40189
0003e0 54 09 be bb eb d6 b7 3e 10 94 d4 bd 45 83 01 3f
       -0.005799452 0.35906157 -0.10379803 0.50590926
0003f0 54 26 5d 3d b2 6c b2 3e 29 80 f0 3c ba d0 c5 bd
       0.05399163 0.34848553 0.029357987 -0.09658952

linear_2.bias f4 [3]
000000 0d 56 87 3e 1d bf a6 3d ce 4b d5 3d
       0.2643284 0.08141921 0.10414849
