Code/model/model.pth (torch, 17673 bytes, 4 tensors)

linear_1.weight f4 [256, 11]
00000000: 611d 093e 65cd cb3c 7cfd cb3e 95b5 513e
00000010: 4c6a 8ebd 2f86 723e 2feb abbd 6913 23be
00000020: 7004 9b3e bc20 793e f969 1e3e c9a3 38bd
00000030: 3130 da3d b314 3ebe 26f9 d63e 3267 51be
00000040: b1e5 b93e 8c7c a8be 3ff5 7cbd 5d43 3abf
00000050: 3625 7b3e f094 8fbe 4238 db3e f687 83ba
00000060: e0f2 0dbe e5e6 c53e fcd4 123f d997 56bd
00000070: c86a a0be 74a6 68be bd1a b4be 8625 8d3e
00000080: 04c4 f93e d25a d1be e816 e03e c855 eb3e
00000090: 87dc 783e 49b1 7f3e 021d 94be 27d1 963e
000000a0: 28b6 fc3e ea4a b63d 2e43 963d da34 e8bd
000000b0: 5e5d 46bc b3f0 0abf 4a49 1b3f 6c79 383e
000000c0: 444c edbc d892 89bc 19f0 acbc 4bb8 25be
000000d0: fcf9 febb 9c34 6c3e 4ee6 653e 01ae d93e
000000e0: c26f a4be 52cf b1bc 4637 3d3e 786f 913e
000000f0: 69b1 8b3d 736d 93be 0e12 82be a2e5 bcbe
00000100: d6c7 453d d1b4 983e 1f25 9fbd 466b 2d3e
00000110: 881a 34bc c0c0 4e3e bd55 20be ed4b 9b3e
00000120: 2386 babd b92e f53d 8a35 5c3e 7d40 9abd
00000130: 7d67 9a3e 46cf aa3e 7ea6 803d f626 2f3e
00000140: 0cf7 ac3d a96b af3b bba8 9f3d 345b 7d3d
00000150: 5932 c03e ce5c 9f3e 1b69 f33d fa9c d2bc
00000160: d4b4 813d 0e74 13bf 016e 1e3f 495b 4f3e
00000170: ba91 be3d 0614 6abe eee8 c93d 75c4 ef3d
00000180: 6d9e 2f3d b215 1dbe c540 35be 11f9 b23e
00000190: 681b 803d 51ad bb3e 6aba 89bd 8588 a8bc
000001a0: acb1 6dbe 1ed5 36bd 800a 993e f0ed 833e
000001b0: 02c6 be3e 293b 803e 1e38 91be 870e 073d
000001c0: d12a 1a3e 7378 2cbf 8a62 18bf 7c03 563e
000001d0: 1244 5e3e 1c78 06bf 5b23 eebe eeef c33e
000001e0: 5a6d 9e3e a413 55be 44b3 fd3d a7c1 29bd
000001f0: 2b98 ed3d 76c4 97be acae eabd a96a aabe
00000200: 4698 6ebe d085 113e ee50 87be a387 853e
00000210: 1a63 263e a5f4 ca3e 6978 b03e 45b5 ca3d
00000220: b7e2 b1bd 2cad 313e 2c98 88be 5212 2d3e
00000230: 2516 c63e 95bb e53d 2a1e ea3e b068 f0be
00000240: 4bfd acbd ba81 24be e1a2 81bd fb86 d73e
00000250: 19a8 4cbd 2b01 b63e cf65 823e 648a 83be
00000260: 5f15 95be ae8d 50be 180a 81be d8e9 57be
00000270: aa67 483e 8841 18bd 2234 8abe eb7f 07be
00000280: 722a b63c f94a fcbd 04f7 f8bd ce88 8abd
00000290: c752 74be 3449 863e 299d 25bf 10df d33e
000002a0: 5c5c 2ebe 21af f3bd f1ad fbbd ad67 38be
000002b0: ba0f 613e 9de2 703e 5670 253d a76d 1c3e
000002c0: 90c5 93bd 809b ca3d 938e 663e 1ab4 943d
000002d0: 99a6 86be a1cc 08be 7c01 cabe 2a03 fabc
000002e0: 390e ad3e 18da 3ebc bf66 e6bd 11c3 bfbd
000002f0: 690b de3d dd60 6bbe e2aa e5be b251 503d
00000300: 6c96 123f 9bcd b7be bf30 35bf 4a14 27bf
00000310: 4e60 e53e 5589 16bf 5ea8 4cbd ce1d 083f
00000320: 6e9e f63e 015a 633d 4262 19be cae9 dfbd
00000330: 7dc9 d2bd 8c29 1cbe 1ee4 a33e 22ce 253e
00000340: f61e 273e 41ea 063f 0688 873e 1f43 9ebe
00000350: c8c4 6dbe f13e 143e bc88 f43c fcd8 1d3e
00000360: 3bdb bd3e a9f4 cbbd 0f92 a83d c950 84be
00000370: b767 043f faeb 923e d848 9dbd 9938 2ebe
00000380: bc5e 09bd 0428 3fbe 6935 d93e a27c 61bc
00000390: e21f 4f3e 6eec a03e 36ca dabe b71e d2be
000003a0: c803 afbe b734 a13e ec02 b03c 6cc3 383e
000003b0: 65d5 ffbd 8973 1a3e 8a48 933e 5067 023e
000003c0: ad51 15bd a826 353e 0cd7 50be ffa3 a83e
000003d0: 6c76 463e dbdd 83bd b301 b0be 6bed 93be
000003e0: 0b5f 1abe 7f69 67be 27d8 973e 5e8e 88bd
000003f0: 9758 233e 27e9 8dbd 9f32 9c3d 4754 7c3e
0.13390113 0.024878213 0.3984183 0.20479424 -0.06953868 0.23684 -0.08394467 -0.15925373
0.30276823 0.24328893 0.15470113 -0.045078073 0.10653723 -0.18562584 0.4198696 -0.20449522
0.36308053 -0.32907522 -0.061757322 -0.7275904 0.24525914 -0.28043318 0.4281636 -0.0010035026
-0.1386218 0.3865272 0.5735624 -0.052390907 -0.31331468 -0.22719747 -0.3517665 0.2756769
0.4878236 -0.40889603 0.43767476 0.45963883 0.24302875 0.24969973 -0.2892838 0.29456446
0.49357724 0.089010075 0.07337032 -0.11338206 -0.012107221 -0.5427353 0.60658705 0.18015069
-0.02896703 -0.016793653 -0.021110581 -0.16183583 -0.0077812653 0.23066944 0.22451136 0.42515567
-0.32116514 -0.021705303 0.18478116 0.28405356 0.06820948 -0.2879444 -0.254044 -0.36893946
0.04828628 0.29825452 -0.07770752 0.16935453 -0.010992654 0.20190716 -0.15657707 0.30331364
-0.09107616 0.11971802 0.21504799 -0.075318314 0.3015708 0.33361262 0.06281756 0.17104706
0.08445558 0.0053534103 0.07795855 0.061854556 0.37538412 0.31125492 0.11885282 -0.025709618
0.06333318 -0.5759896 0.618866 0.20249666 0.09305139 -0.22859201 0.09858881 0.11707393
0.042875696 -0.15340307 -0.17700489 0.34955648 0.06255227 0.36655667 -0.06725009 -0.02057291
-0.23212308 -0.04463684 0.29890823 0.2576747 0.37260443 0.25045136 -0.28363127 0.03297284
0.15055396 -0.6737129 -0.5952536 0.20899767 0.21705654 -0.5252702 -0.4651135 0.3826899
0.30942804 -0.20808274 0.12387708 -0.041444447 0.11601289 -0.29642075 -0.11459097 -0.332845
-0.23300275 0.14211202 -0.26428932 0.26080045 0.16248742 0.39639774 0.34466866 0.09897856
-0.086858205 0.17351216 -0.26678598 0.1690152 0.3868877 0.11217419 0.45726138 -0.4695487
-0.08446749 -0.16065112 -0.06329895 0.4209517 -0.049964998 0.35547766 0.254683 -0.2569152
-0.29117867 -0.20366547 -0.25203013 -0.21085298 0.19570795 -0.03717187 -0.269929 -0.1323239
0.022237036 -0.123189874 -0.121564895 -0.06764375 -0.23859702 0.26227725 -0.6469293 0.4138112
-0.1702742 -0.118986376 -0.12289036 -0.18008299 0.21978655 0.23523946 0.040390335 0.15276204
-0.072154164 0.098929405 0.22515325 0.07260914 -0.2629898 -0.1335931 -0.39454257 -0.030519087
0.33799914 -0.011648677 -0.11250066 -0.09363378 0.1084202 -0.22986169 -0.44856936 0.05085916
0.57260776 -0.35899052 -0.70777506 -0.65265334 0.44800037 -0.588033 -0.049965255 0.5317048
0.48167747 0.055505756 -0.14978889 -0.109332636 -0.10292337 -0.15250224 0.32009977 0.16191915
0.16320404 0.52701193 0.26470965 -0.30910584 -0.23219597 0.14477135 0.029850356 0.15414804
0.37081322 -0.099587746 0.082309835 -0.25842884 0.51720756 0.2869566 -0.076799095 -0.17013778
-0.03353761 -0.18667608 0.4242356 -0.013762625 0.20227006 0.31430382 -0.427324 -0.4103906
-0.34182572 0.3148553 0.021485768 0.18043298 -0.12491874 0.15083136 0.2876628 0.12734723
-0.036454845 0.17690527 -0.20394534 0.3293762 0.19381112 -0.064388 -0.34376296 -0.28892073
-0.15075319 -0.22598837 0.296571 -0.066677794 0.15951763 -0.06929236 0.07626843 0.24641524

linear_1.bias f4 [256]
00000000: 7c74 7ebe b88b b83e 385f 39be a7bc 22be
00000010: 6f83 8a3e 302c 37bc 1e8c 82be 386e 0bbe
00000020: ea68 8c3e 53be 78be 5604 1f3e 37f2 86ba
00000030: 72a4 99be 63b4 3fbe ec99 8bbe ac4a cb3c
00000040: 060d 71bd 9398 09bd 600c 73be 5365 6b3d
00000050: 78ad 34be 625f 45be eb9f b238 6876 083e
00000060: 5d29 e83e 58ba 3abd 597f 63be f6c0 13bd
00000070: 1f31 d1bd df55 94be ede4 ca3c a342 e93d
00000080: fce5 e03d 391a df3d 783d 92be 5bc5 72bd
00000090: 929c dabd df4b 9fbd 86b7 30be 7035 e5bd
000000a0: ac0f 533e 3630 e93d b5c5 8a3e db8d 96be
000000b0: 1cb2 a5bd 5533 3c3e c468 873d 9e15 5fbe
000000c0: e7e7 243e 0cce 40be 4f97 f8bd ea76 713c
000000d0: c7bb 51be 0b9a a8be 36da 7fba 7a05 98bd
000000e0: 3701 863e be66 93be 3f78 77be 62d2 893e
000000f0: d335 94bd d226 cd3c 6828 dfbd 0c2f d93e
00000100: 3afc 89bd d8b5 993c e787 92be 56c5 46be
00000110: c14b 833e 92a2 df3e 87cc 93bd 8da8 0ebd
00000120: e7e1 cabd 69f5 203e 7e12 263d 52d0 97be
00000130: ca95 16bd 333f 20be 876b 96be c5e8 173e
00000140: b2ba 3cbe 39af 82bd a46c 1bbe eca5 91bc
00000150: 9120 c73d 88ec 96bd 0ac4 a4be 72c8 203e
00000160: f5e8 30be 0e6f 47bd 7645 893e f3f6 0f3e
00000170: 9af9 edbd e232 03be 6c21 44be e370 573d
00000180: a6b4 82be c1c8 2cbe ae27 0c3f 65e5 18be
00000190: f7f0 83bd 9799 953c 2fa2 efbc ca07 a73e
000001a0: 5e14 94bd d0b0 8fbd 9a65 abbd ce8e 9cbd
000001b0: 54bc 113e c26d 683e f5ce f1bd e4ac 803d
000001c0: 08a4 7fbe 86c9 4abe db7e de3d 0f09 54be
000001d0: ff1c b73e 5633 d2bd 12a6 5f3e 81b0 793e
000001e0: 0a36 503e cccd 5cbb 9cb1 a43d 909c 1d3f
000001f0: 59c1 ad3e 3f88 b5bd 5736 c73e 2af7 02be
00000200: a8f1 1d3e 44ab a8be b094 b03d 1945 3abe
00000210: 3b45 19be 155d 363f 3ea2 b43e ec7f a13d
00000220: c7b2 1bbe df8a 7abd 5970 db3c dc43 85be
00000230: 8d83 6a3d 3c56 373c 3e68 0ebe 7d16 f7bd
00000240: 4715 6fbe 2629 833d f3ff efbd 18fb d93d
00000250: 0abe 97bd 5317 463d 8fe6 e6bd 243b 4dbd
00000260: 667d 5ebe 8532 8d3d 56dc bbbd eaf7 2abe
00000270: 78ba 1f3c b8ab 8dbe 634e bebd 1705 38be
00000280: c9e2 4d3e e1de 4cbe a328 8c3e 4c77 33bd
00000290: a73d d2bd 2119 05be 61d3 463d fea5 9dbd
000002a0: d837 a7be 3dc0 3ebe 44db ec3d f911 f03c
000002b0: 09dc fe3d 628c dabd 1ced 2f3f 437a 883e
000002c0: 23e2 2a3e fd16 16bd 8796 abbe 2505 8a3e
000002d0: 8111 66be fb20 7f3d 001f 183d 549e 81be
000002e0: 5cf5 25bc bff2 3d3c 512e c2bd 5370 0ebe
000002f0: b099 a33e b8c8 6cbd 36d9 0a3e f3bc 67be
00000300: 5aaf fdbd be95 fcbd 780e a43d 0d61 f2bc
00000310: 2bf4 c63d 5542 963c 5fca b3be d2df 5ebe
00000320: b15a c9bd 4057 50be 7070 283e b648 44be
00000330: 2979 073e 219c 2c3d 1138 63bd 4fac a4bd
00000340: af49 bdbe 8937 7e3e ad8b af3e 34f2 14be
00000350: b449 adbd a646 6ebe 8a47 65bc 43a9 6cbd
00000360: fc32 2dbe b0d8 ddbd c7cb 88be 5bd3 97be
00000370: 9b6a 89bc d467 ccbd 77f0 933d b6a1 85be
00000380: 72c2 9d3e f93c 2cbe bfd2 85bd 20dd 46be
00000390: d048 ffbd c5fd 76bd 893f 4ebe 2977 323d
000003a0: aab9 d63c f965 96be 4df7 47be 4037 c13c
000003b0: 2095 083f dff5 3ebe 67e3 7dbe 7307 943e
000003c0: 0ea7 a1be 271c 4bbd c3e4 b63d 059f 87bd
000003d0: 4ff0 5abd 42c0 8c3e 8135 4a3e 552e 94be
000003e0: a7b4 73bd 70f0 273e eacc f33d 00b4 e6bd
000003f0: 24a7 06be 7c5f eebd 703d 77be b72d bf3e
-0.24849123 0.36044097 -0.1810273 -0.15892278 0.270534 -0.011179969 -0.25497526 -0.13616264
0.27423793 -0.24291353 0.15528998 -0.0010295574 -0.30008274 -0.18721156 -0.2726587 0.02481588
-0.05885031 -0.03359277 -0.2373519 0.057469677 -0.17644298 -0.19274667 8.5174885e-05 0.13326418
0.45344058 -0.045587867 -0.22216548 -0.036072694 -0.10214447 -0.28971764 0.024767363 0.11389663
0.10981366 0.108936734 -0.28562522 -0.059270244 -0.10674395 -0.07778143 -0.17257509 -0.11191833
0.20611447 0.11386149 0.27103963 -0.29405102 -0.08090612 0.18378957 0.06611779 -0.2178559
0.16104089 -0.188286 -0.12138235 0.014737824 -0.20481788 -0.32930025 -0.0009759994 -0.074229196
0.26172802 -0.28789324 -0.24166964 0.26918322 -0.07236829 0.025042925 -0.10896379 0.42418706
-0.067375615 0.018763468 -0.2861931 -0.19411215 0.25643733 0.4367872 -0.07216745 -0.03482871
-0.09906369 0.15718617 0.04054498 -0.29651123 -0.036763944 -0.15649109 -0.29378912 0.14834888
-0.18430594 -0.06381077 -0.15178162 -0.017779313 0.097230084 -0.073693335 -0.32180816 0.15701464
-0.17276366 -0.048689894 0.26810807 0.14059047 -0.11619873 -0.12812379 -0.19153374 0.05259789
-0.2552845 -0.16873457 0.54748046 -0.14931257 -0.06442445 0.018261714 -0.02925214 0.3262313
-0.07230447 -0.07016146 -0.08368988 -0.07644425 0.14231998 0.2269812 -0.11807052 0.06282976
-0.24964917 -0.19803438 0.108640395 -0.2070658 0.3576431 -0.10263698 0.21840695 0.24383737
0.20333114 -0.0033692 0.08041689 0.6156702 0.33936575 -0.088638775 0.38908646 -0.12789598
0.15424216 -0.32943165 0.0862211 -0.18190421 -0.14967816 0.7123578 0.3528003 0.07885727
-0.15204917 -0.061167594 0.02678697 -0.26028335 0.057254363 0.0111899935 -0.13906953 -0.12064836
-0.2334796 0.06404333 -0.1171874 0.106435955 -0.07409294 0.048362087 -0.11274444 -0.05010523
-0.21727523 0.068944015 -0.09172885 -0.16696134 0.009749047 -0.27670074 -0.09292295 -0.17970692
0.20106043 -0.20006897 0.27374753 -0.043814942 -0.102656655 -0.12997867 0.04854143 -0.07697676
-0.32659793 -0.1862802 0.11565259 0.029305445 0.12444312 -0.10671307 0.68721175 0.26655778
0.16687827 -0.036643017 -0.3351328 0.2695705 -0.22467615 0.062287312 0.03713894 -0.25316107
-0.010129299 0.01159352 -0.094814904 -0.13910036 0.31953192 -0.057808608 0.13559422 -0.22630672
-0.12386961 -0.123332486 0.08010572 -0.029587293 0.0971454 0.018342176 -0.35115334 -0.21765068
-0.09831751 -0.20345783 0.16449142 -0.19168362 0.13229813 0.042141084 -0.05547339 -0.08040678
-0.3697028 0.24825872 0.34286252 -0.14545518 -0.084613234 -0.23269138 -0.013994107 -0.057778608
-0.1691398 -0.108323455 -0.2671797 -0.2965344 -0.016774466 -0.09980741 0.072235994 -0.26099938
0.30812413 -0.16820134 -0.06534337 -0.1942029 -0.1246506 -0.060300607 -0.20141424 0.04357067
0.026211578 -0.29374674 -0.19527932 0.023585916 0.53352547 -0.1864848 -0.24793778 0.28911933
-0.31572765 -0.049587395 0.089303516 -0.066221274 -0.053451832 0.2749043 0.19746973 -0.289416
-0.059498455 0.16400313 0.11904319 -0.11264801 -0.13149697 -0.11639306 -0.2414453 0.37339565

linear_2.weight f4 [3, 256]
00000000: 3c86 d5bd 7e89 cd3e 01a9 2abf 4b88 843d
00000010: 11cf e13d cdf8 15be 1519 bebd d059 84bd
00000020: 9f49 ff3d a144 5dbe caf4 033f b357 00be
00000030: d37c 91be b527 c4be 7394 9dbc 807c 89bd
00000040: 365a 9bbd 4008 f53e 518d 51bd 55c1 9dbd
00000050: 4dbd 4abe f53b 563d debc 50bb 835f 003d
00000060: 2a67 7b3e ef92 86be 1f3f a5be 615e bb3e
00000070: 32a1 27be a602 6cbe 233d 26be 99ac 843c
00000080: 92dc 3a3d 444b 39bf b4c3 02be 26aa 2a3d
00000090: d962 4cbd 39d0 0abe e4d9 4bbe f509 13be
000000a0: 8358 9b3e 1dc6 4c3e 0b0d 733e af6a 79be
000000b0: a698 adba 974b 2e3e 9e64 bf3e fc72 e33d
000000c0: b440 993e e009 0fbe b204 ed3c cfbf 0abc
000000d0: b880 dabe b1d5 83be d29d 8bbe dac0 cfbe
000000e0: ed8c 0c3e aac5 0dbb 82e5 0abe 6c24 423e
000000f0: c0e4 c7bd 8fb3 48be f9d7 46be 493a 5a3e
00000100: f1e3 e1be a0c7 26bd ddb1 5dbe af7a 3fbf
00000110: ab1f 613e 200c 6f3e 5a82 dd3b 06fd 893e
00000120: 38a9 68bc e2e7 8d3d 3442 afbc 7598 20bf
00000130: 58f3 10be e189 8dbe 4312 bcbd 6c71 933e
00000140: 4a58 3f3d 11a3 37be 16ea 61be 930e 543d
00000150: d602 0a3d e431 e83e 2323 33be 899e fbbc
00000160: e24e 1dbf 3a8b 00bf eb80 063e 698b fabe
00000170: 17be 4e3c 3089 9ebe e811 63be 8812 99bd
00000180: ce2f 88be df05 e3be b390 123e 63a8 12bd
00000190: 5b39 00bf 79d9 05be 00f5 a4be e09e 943e
000001a0: 6034 bebe eff0 91be 62ae d2bd 222d 38be
000001b0: ae14 4a3e 8501 c23e c55e 413e 422a b7bc
000001c0: 921e 31be b798 963e 4961 4abf 8734 ebbd
000001d0: 752b 1d3f dbc9 a93c 14eb 4c3e bd9e c63d
000001e0: 1545 d8be 2301 3fbe a026 42bd 7193 d73e
000001f0: ed7a c83e 3c20 a4be 6cfb c13e eafa a4bc
00000200: 47e8 123f 3f61 623c 7493 963e 3168 4cbe
00000210: c0d8 e1ba b069 c83e de38 453e 795b 453e
00000220: 896e 983d e5b6 b4bb e99a 223e 0ab0 8dbe
00000230: 3d8e c93e 22f4 5bbe 4932 cabe b44e f0bb
00000240: 6405 d0bd 1d2c bb3d aefe c5bd fe37 7f3e
00000250: 46d6 08bf 4e07 563b 5bc7 693e d6df 42bc
00000260: 5973 04be baf3 4f3e 967a ae3e db4c 0cbf
00000270: 7c28 b7bd 5fed c0bc ff90 7ebd 95ed 0abe
00000280: abf3 813e 3ffe a6be e229 9c3e aa17 793d
00000290: 9a38 a3bd 3059 0c3e bba9 fcbc ae11 65bc
000002a0: c045 e2bd d019 223b 74bc 6e3c 5e87 dd3e
000002b0: d22b acbe 0d22 9f3e 1b2a 083e f9aa 353e
000002c0: b2f9 6f3e bc53 d6bd 83f9 dfbd 4bb0 283e
000002d0: 8720 4cbe e1ea 54be dafd 463c c5af 3abe
000002e0: 9300 393e c52a 71bd ba08 6dbc 43e8 1fbc
000002f0: 6269 9d3e aba6 93be 134d 9bbe 83ca 3fbf
00000300: 223e 05bd 5dc6 843e 6fc1 fdbc 70e5 24be
00000310: 7ea6 e0be 7fd3 683e 945e 4fbd 9f51 dbbd
00000320: a268 08bf 941d 66bc 05b3 a03e b444 debe
00000330: d77f ff3d 5f7f e73d f250 4fbd 8946 22be
00000340: acbc 48be e62f ae3e 36b7 9a3e b1d0 85be
00000350: 741d c93c 1ea5 56be c163 953b 66ba 2b3d
00000360: 6b32 1ebc a05c 79be c1b9 aebe 1937 adbd
00000370: 23f9 0c3e b498 fb3c 3cf5 b4be 16bd 66bd
00000380: 1049 023f bdcc 84be 98e8 c43e 219d 50bc
00000390: 0548 113c 3d4d 8f3e 6d8c 9fbe 63f0 e63e
000003a0: 1ef8 df3e a729 c53d 2151 97bd 9c9c 7e3e
000003b0: 8d4c 893e 492f acbd e547 4a3e bc48 9e3e
000003c0: 9839 1ebe 124f 6dbe a936 013e ce04 77be
000003d0: 7f70 ef3e 35d7 fd3d 1540 523e 2fce 16bf
000003e0: a7bb b2be 86db d9bc 47b5 623e 7f92 a93e
000003f0: 5664 bcbc 2fcd cfbd d7a0 833c 3682 bf3e
-0.10425994 0.4014396 -0.6666413 0.06471308 0.11025823 -0.14645691 -0.09282128 -0.06462443
0.12465214 -0.21608211 0.51545393 -0.12533455 -0.28415546 -0.38311544 -0.019235825 -0.067131996
-0.07585566 0.47857857 -0.05116016 -0.07702891 -0.19798775 0.052303273 -0.0031850855 0.031341087
0.24551073 -0.26283976 -0.3227472 0.36595443 -0.16370085 -0.23047885 -0.1623426 0.016195582
0.04562051 -0.7238047 -0.12769967 0.041666172 -0.049898956 -0.13555993 -0.19907337 -0.14359267
0.30340967 0.19997449 0.23735444 -0.24357103 -0.0013244345 0.17021023 0.37381452 0.11105916
0.29932177 -0.13968611 0.028932903 -0.008468582 -0.4267633 -0.2574897 -0.27268845 -0.40576822
0.13725634 -0.002163271 -0.13564113 0.18959206 -0.097604275 -0.19599746 -0.19418325 0.21311297
-0.44119218 -0.04071772 -0.2164988 -0.74796575 0.21984737 0.23344469 0.006759924 0.26950854
-0.014200501 0.06928994 -0.021393873 -0.6273263 -0.14155328 -0.27644256 -0.09183171 0.28797472
0.04671506 -0.17933299 -0.22061953 0.05177171 0.03369411 0.45350564 -0.17493872 -0.030715244
-0.6144849 -0.5021244 0.13135116 -0.48934487 0.012618563 -0.3096404 -0.221748 -0.07474238
-0.26598972 -0.44340417 0.14313011 -0.035805117 -0.5008752 -0.1307124 -0.3221817 0.29027462
-0.37149334 -0.2850413 -0.10287167 -0.17985967 0.19734451 0.37891784 0.18883808 -0.022359017
-0.17296818 0.29413387 -0.79054695 -0.11484628 0.61394435 0.020726135 0.2001155 0.09698246
-0.42240205 -0.18652777 -0.047400117 0.42104676 0.39156285 -0.32055843 0.37887132 -0.020139176
0.5738568 0.013817131 0.29409373 -0.19961621 -0.0017230734 0.39143133 0.19259974 0.19273175
0.07442958 -0.005514967 0.15879406 -0.2767337 0.39366332 -0.21479848 -0.3949149 -0.007333601
-0.10157278 0.09139273 -0.09667717 0.24923703 -0.53451955 0.0032658163 0.22829954 -0.011894187
-0.12934627 0.20307818 0.340779 -0.5480477 -0.08943269 -0.023550687 -0.062149998 -0.13567193
0.25381216 -0.3261585 0.30500704 0.060813583 -0.0796978 0.13705897 -0.030842653 -0.013981266
-0.1104846 0.0024734624 0.014571298 0.4326734 -0.33627182 0.31080666 0.13297312 0.17741002
0.23435095 -0.1046519 -0.109362625 0.164735 -0.19934283 -0.20792724 0.012145484 -0.18231113
0.18066625 -0.05887868 -0.014467413 -0.009759965 0.30744463 -0.28838095 -0.3033224 -0.74918383
-0.032529958 0.2593259 -0.030976025 -0.16103148 -0.43877023 0.2273693 -0.050627306 -0.10708927
-0.53284657 -0.014045138 0.3138658 -0.4341179 0.124755554 0.11303591 -0.050614305 -0.1584722
-0.19603223 0.3402092 0.30217904 -0.2613578 0.024550177 -0.20961425 0.0045590107 0.04192581
-0.009655575 -0.2435174 -0.34126094 -0.08457775 0.13766913 0.030712463 -0.3534335 -0.05633267
0.50892735 -0.25937453 0.38458705 -0.012732775 0.008867268 0.27988616 -0.31161824 0.45105276
0.43743986 0.09627085 -0.07388521 0.24864429 0.26816216 -0.084074564 0.19753988 0.30914867
-0.15451658 -0.23174694 0.12618507 -0.24122927 0.46765515 0.12394563 0.20532258 -0.5890836
-0.34908792 -0.026593935 0.22139464 0.3311958 -0.022997063 -0.101465575 0.016067905 0.3740403

linear_2.bias f4 [3]
00000000: 131c 3e3e 8992 8f3d 2aca 883c
0.18565397 0.07010371 0.016697962
